…
/scratch/06079/tg853783/ddmd/envs/pytorch.mpi/bin/python /scratch/06079/tg853783/ddmd/src/DeepDriveMD-Longhorn-2021/ddp_aae_experiments/train.py -c /scratch/06079/tg853783/ddmd/src/DeepDriveMD-Longhorn-2021/ddp_aae_experiments/aae_template.yaml --output_path /scratch/06079/tg853783/ddmd/runs/ddp_aae_experiments/4-node_512-gbs --data_path /tmp/spike-all-AAE.h5 -E 2 -D 2 -G 2 --distributed
/scratch/06079/tg853783/ddmd/envs/pytorch.mpi/bin/python /scratch/06079/tg853783/ddmd/src/DeepDriveMD-Longhorn-2021/ddp_aae_experiments/train.py -c /scratch/06079/tg853783/ddmd/src/DeepDriveMD-Longhorn-2021/ddp_aae_experiments/aae_template.yaml --output_path /scratch/06079/tg853783/ddmd/runs/ddp_aae_experiments/4-node_512-gbs --data_path /tmp/spike-all-AAE.h5 -E 3 -D 3 -G 3 --distributed
DistributedDataParallel(
  (module): AAE3dModel(
    (encoder): Encoder(
      (conv): Sequential(
        (enc_conv1): Conv1d(3, 64, kernel_size=(5,), stride=(1,))
        (enc_relu1): ReLU(inplace=True)
        (enc_conv2): Conv1d(64, 128, kernel_size=(5,), stride=(1,))
        (enc_relu2): ReLU(inplace=True)
        (enc_conv3): Conv1d(128, 256, kernel_size=(3,), stride=(1,))
        (enc_relu3): ReLU(inplace=True)
        (enc_conv4): Conv1d(256, 256, kernel_size=(1,), stride=(1,))
        (enc_relu4): ReLU(inplace=True)
        (enc_conv5): Conv1d(256, 512, kernel_size=(1,), stride=(1,))
      )
      (fc): Sequential(
        (0): Linear(in_features=512, out_features=256, bias=True)
        (1): ReLU(inplace=True)
      )
      (mu_layer): Linear(in_features=256, out_features=64, bias=True)
      (std_layer): Linear(in_features=256, out_features=64, bias=True)
    )
    (generator): Generator(
      (model): Sequential(
        (gen_linear1): Linear(in_features=64, out_features=64, bias=True)
        (gen_relu1): ReLU(inplace=True)
        (gen_linear2): Linear(in_features=64, out_features=128, bias=True)
        (gen_relu2): ReLU(inplace=True)
        (gen_linear3): Linear(in_features=128, out_features=512, bias=True)
        (gen_relu3): ReLU(inplace=True)
        (gen_linear4): Linear(in_features=512, out_features=1024, bias=True)
        (gen_relu4): ReLU(inplace=True)
        (gen_linear5): Linear(in_features=1024, out_features=10125, bias=True)
      )
    )
    (discriminator): Discriminator(
      (model): Sequential(
        (dis_linear1): Linear(in_features=64, out_features=512, bias=True)
        (dis_relu1): ReLU(inplace=True)
        (dis_linear2): Linear(in_features=512, out_features=512, bias=True)
        (dis_relu2): ReLU(inplace=True)
        (dis_linear3): Linear(in_features=512, out_features=128, bias=True)
        (dis_relu3): ReLU(inplace=True)
        (dis_linear4): Linear(in_features=128, out_features=64, bias=True)
        (dis_relu4): ReLU(inplace=True)
        (dis_linear5): Linear(in_features=64, out_features=1, bias=True)
      )
    )
  )
)
Having 6544 training and 1636 validation samples.
Having 6544 training and 1636 validation samples.
Having 6544 training and 1636 validation samples.
Having 6544 training and 1636 validation samples.
Having 6544 training and 1636 validation samples.
Having 6544 training and 1636 validation samples.
Having 6544 training and 1636 validation samples.
…
